example_digital_recognition/models/net.pth (torch_old, 873655 bytes, 12 tensors)

weight f4 [16, 1, 3, 3]
00000000: 9be3 70be 8e99 65bc e619 703c 5ea9 dd3d
00000010: 7ac5 a4be 8741 af3c be2f 883d 23e6 31be
00000020: 65af 9cbd 1da7 193e 790d 783b fe45 82be
00000030: 036e 05bd 9dc8 5fbd f77b 1fbe b35f 86bd
00000040: b924 863e 0735 6fbe 88e4 a83e 8e8f 4fbe
00000050: ebd2 053e 2b70 8f3e 754a 77bd fa55 aebe
00000060: 8241 8bbe ce65 acbe e2ed e13d ff38 983e
00000070: 7a80 85be 91ff 21be 7f5d a0be 93b0 aabe
00000080: b293 6b3e b745 90bd 7981 aabe ac2a 12be
00000090: f907 a4be 1484 0839 ac21 c3bd 57b7 203c
000000a0: c888 b23d 9d91 a2be c9d0 55be 9b26 3b3d
000000b0: c035 95be 7285 563e 50ff 923e bf72 173e
000000c0: b81d 9cbe 967d 3dbe e1d8 c63c cb37 49be
000000d0: d5b1 27be 187a 7cbe 945d e93d 7f44 7e3e
000000e0: be93 163d 7ae2 d43d 8d78 0fbd 10c4 a1be
000000f0: 3668 f03d c784 a53e bdfb 823e e5c2 a43e
00000100: a45b 98be 595d 8abe 96ec 963e bd9c 033e
00000110: da15 77be bf51 753e 83da 9abe 52d3 3c3d
00000120: 9404 353e a4c8 663d 538b 513c d13a 413e
00000130: ffbe c1bc 624c ab3e b3d6 9d3d c8d4 873e
00000140: 4cde 5bbe 4a20 5abd f040 d7bc 9364 22be
00000150: 784c 063e c137 50be e321 733e 66d5 97be
00000160: 4ca0 9a3e 93c7 85bd 5bfa 413e e472 713e
00000170: 936f 963e 9b81 a1be 0b09 86be 1b80 e8bb
00000180: 8d91 733e 7afb 9a3e ebbc 99be fa63 563c
00000190: 8586 aabe 92bc a2be 40c7 34be 7710 0f3e
000001a0: 50ae 2ebd 7fda 37be 29d2 a73c e66c 2c3e
000001b0: 5347 90be b348 e7bd 752b 333e 58e4 a23c
000001c0: dbae 3b3e 8c04 97be 23a2 58be 00e6 acbc
000001d0: 8e67 82be ef08 7dbe aae3 b03e c15e a33e
000001e0: a8ae 11be bc68 85be 4c03 e43c 21bf b2bd
000001f0: 0651 663e b2de dcbc 36ae 78be 2cd1 423e
00000200: f966 5e3e 410f a5be 61cd cf3c ef89 8a3e
00000210: dcb0 273c f1d1 c5bc ab0b 913d bceb a4bd
00000220: 23d3 193d 0914 94be 9458 9d3e ba83 8ebe
00000230: 55f8 80bd 54b8 a3be bb3b 073e 2e7a 3e3e
-0.23524325 -0.014013661 0.014654612 0.1082332 -0.32181913 0.02139355 0.06649731 -0.17372946
-0.07650641 0.15005155 0.0037849827 -0.25444025 -0.03257562 -0.05463468 -0.15574633 -0.06561222
0.26199892 -0.23360072 0.32986856 -0.20269606 0.1306874 0.28015265 -0.060373742 -0.3404997
-0.27198416 -0.3367142 0.11031701 0.29730985 -0.26074582 -0.15820147 -0.31321332 -0.3333784
0.2300556 -0.07044547 -0.33301905 -0.1427409 -0.32037333 0.00013019174 -0.09527907 0.009809337
0.08717495 -0.3175172 -0.20880426 0.045691114 -0.2914257 0.20949343 0.28710413 0.14789866
-0.30491424 -0.18504938 0.024273338 -0.1965019 -0.16376431 -0.2465595 0.11394802 0.24830817
0.03676199 0.103947595 -0.035027076 -0.31594896 0.11738627 0.32327864 0.25582686 0.32179943
-0.29757416 -0.27024344 0.29477376 0.1285276 -0.2412943 0.23956965 -0.30244836 0.04609997
0.17677528 0.05634369 0.012789565 0.18870093 -0.023650644 0.33456713 0.07706966 0.26529527
-0.21471518 -0.05325345 -0.026276082 -0.15858679 0.13115108 -0.20333768 0.23743396 -0.29654998
0.30200422 -0.065322064 0.1894316 0.23578984 0.29382 -0.31544194 -0.26178774 -0.0070953495
0.23785992 0.30269986 -0.30026945 0.01308536 -0.33305755 -0.31784493 -0.17654133 0.13971125
-0.042646706 -0.17954443 0.020485954 0.16838416 -0.28179416 -0.11293163 0.17497046 0.019884273
0.18328421 -0.29495656 -0.211556 -0.021105766 -0.2546963 -0.24710439 0.34548694 0.3190823
-0.14226782 -0.26056468 0.027833603 -0.08727861 0.22491845 -0.026961658 -0.24285206 0.19025105
0.21718968 -0.322382 0.025366487 0.2705836 0.010235038 -0.02414796 0.070823036 -0.08052775
0.03755487 -0.28921536 0.30731642 -0.27834874 -0.062973656 -0.3197657 0.13206379 0.18601295

bias f4 [16]
00000000: 5e96 f03c 8bfa 16bd 70f4 853d 4ef4 20be
00000010: 40c2 9c3e ccd4 9d3e 507d e3bd be26 213d
00000020: 9a82 4abe b08e 783d 6f66 5b3e c55a 14be
00000030: 77e2 753e 73f5 91bd fcd3 f53d 0546 ba3c
0.029368576 -0.03686003 0.065407634 -0.15718195 0.3061695 0.30826414 -0.11107886 0.039343588
-0.19776383 0.060682952 0.21425794 -0.14487751 0.2401217 -0.07126894 0.120033234 0.022738466

weight f4 [32, 16, 3, 3]
00000000: 0eed f2bb e3a4 ae3b 819c 4bbc 7cad d9ba
00000010: a846 34bd 12a3 94bc e5ed b0bb 42eb de3c
00000020: 8ea1 003c 5580 fa3c f07f fabc f12e eb3c
00000030: 44d5 4dbd 1172 d1bc 705a 7b3d a1e7 64bc
00000040: 5e95 15bc 64da 30bd 5b1d a7bc b6ea b63c
00000050: caa9 8c3d 6c99 173d 61a9 f8bb 5034 35bd
00000060: acdd 0f3c 3c44 703d b029 23bd 05de 613b
00000070: 697c 4bbd 938f f23c 3796 223d aa15 2fbd
00000080: c233 f0bc 80ad ebbb d981 18bc 2a2e 823b
00000090: b9cd 52ba e974 46bd a121 813a a9a7 92bc
000000a0: 90c1 203d 43aa bcba 44bb 433c b0ef 32bd
000000b0: 3636 4bbd 64e3 a63c f254 0e3d d9f2 5a3d
000000c0: db56 97bb 01b7 033b 4c2b e2bc ef9c b5bc
000000d0: c41f 67bd ffb8 123d 574b 523d 3624 533d
000000e0: 747c 9ebc 2fc6 4f3d ba90 27bd bf0f 91ba
000000f0: d9e9 ae3c a3ac 2ebc 086a 213d d7e8 9abc
00000100: 5478 28bd e3bb ac3b 1af1 053d f758 203d
00000110: 7404 81bc bd8a 53bc 7c75 54bc a394 5cbd
00000120: a216 383d b9f0 013d dd1a 13bd 64a0 45bc
00000130: 248b 823d 536d 7cba fa0d b7bc 1431 7b3d
00000140: da52 3ebd 4ced 853d afdb 67bd b076 453d
00000150: 422e 32bd 7d37 3dbd 69f9 873b 0750 203d
00000160: ae83 e7bc 9541 7c3b d113 503c f2d3 4d38
00000170: e6b9 70bc e374 173d cdae b7bc 8f48 0d3d
00000180: 6f81 74bb 9cf7 4a3d c78c e63c 7fd4 46bc
00000190: 8c05 a03b 0629 a0bc 6a08 04bc 25c3 2ebd
000001a0: 3f1b 143b a544 28bd e33c d13b bdf4 fbbc
000001b0: 1b13 1c3c 98bf a1bb 6caa 043c 45b6 eeba
000001c0: 48f2 4f3d af31 adbb 8336 2dbc 063d 21bd
000001d0: 7329 9f3b 76f6 123d 53dd 433d 0b16 25bd
000001e0: b90d f3bb 44c0 2e3b c201 b53b c788 33bc
000001f0: 061d 1f3d b54e 47bd 0ce9 c5bb 3475 0abd
00000200: edae aa3c ecc4 273d fd54 a93b 3254 03bd
00000210: 0cb9 793d e18a 4fbd 57da 1dbd 5a49 f43c
00000220: c9d4 ebbc 7caa 45bc 932c 183c 9388 cfba
00000230: f476 183d ca59 d43b 2458 973c 51b4 5bbd
00000240: ef5d 5bb9 de7c be3d de69 8c3c 0159 a9bc
00000250: 2fb2 a73d 8a78 863d a311 d1bc ea91 623d
00000260: a986 e3b8 d91c d83c 73ca 473c 1269 3abd
00000270: fbde 0e3d 5664 ba3d 4e14 8f3d ab0a 993d
00000280: dca7 c43c e4c3 0d3d b01f d0bc e5a3 9a3d
00000290: 683c 64bd 8641 563d 64bf 783d fa9a aabc
000002a0: 3342 913d 0f26 973d 1bf2 5fbd 9ba6 f93c
000002b0: f3b1 2b3d a03f ba3d cf87 0cbd edaa b33c
000002c0: d437 103d a144 eebb 00dd 8a3c d981 2d3b
000002d0: 8a9e c23c f580 0e3d 803f 81bd 6450 343d
000002e0: d991 b53d 2bc7 77bd 78cc 9b3d 6b44 ab3b
000002f0: 891d 2abd 5f55 12bd 36fc 8fbc 4a52 883c
00000300: 5843 32bd 7ed1 71bd bfab 873d db20 32bd
00000310: fff1 b23d 27ba 473d abb8 8abc 98e2 cf3b
00000320: 1f1f b9bc 2e69 3c3c 4506 ceb9 2250 82bd
00000330: 6314 b63d 1c3a ce3b 94fe af3d 3d1e 98bc
00000340: 9978 c4bc 6e13 9abc 78fb b13d 9bd3 7d3d
00000350: b3c4 8b3d 1f29 2f3d 9116 6bbd fd31 b23c
00000360: 9413 df3b d24b acbc cf7e 93bd 9df9 213d
00000370: 8919 033d 4c0e 2f3d 1508 8b3c ebac 553d
00000380: fb4f fd3c 0027 b23d 0990 403d 3021 3c3d
00000390: da46 6fbd d1ed b23c 7491 55bd 9cc0 843a
000003a0: 1f25 e6bc b128 413d 72d2 41bd 31c0 8dbd
000003b0: f1b5 9fbd daa0 923d a757 66bd f1b7 2bbd
000003c0: d24b 803d 0cfd a33d aca0 d7bc 0a2a 763d
000003d0: f167 4abd de98 883c f3c9 0bbd a3ea 863d
000003e0: 58ef 9e3d ed9d 56bd 7fa6 bfbc e378 c43c
000003f0: 3992 923d e9ec 6bbd ff65 333d 28f7 5cbc
-0.007413513 0.0053297146 -0.01242745 -0.0016607489 -0.044012696 -0.018144164 -0.005399453 0.027211789
0.007851018 0.030578772 -0.030578583 0.028708907 -0.050252214 -0.025567086 0.061365545 -0.01397124
-0.00912985 -0.043177024 -0.02039974 0.022328716 0.06868322 0.03701155 -0.007588551 -0.044239342
0.008780878 0.058658823 -0.03983468 0.003446461 -0.049679194 0.029609477 0.039694037 -0.04274527
-0.029321555 -0.0071923137 -0.009308302 0.0039727883 -0.00080415193 -0.048451338 0.0009851941 -0.017902212
0.039247096 -0.0014394004 0.011946503 -0.043685615 -0.049612246 0.0203721 0.03474898 0.053454254
-0.0046185083 0.0020098093 -0.027608536 -0.022169558 -0.05642678 0.035820957 0.05134138 0.051548205
-0.019346453 0.050726112 -0.040909506 -0.0011067315 0.021351742 -0.010661277 0.03940776 -0.018909855
-0.04113038 0.0052714213 0.032700635 0.039147343 -0.015749194 -0.012911496 -0.012967464 -0.05385269
0.04494346 0.03172371 -0.03591429 -0.012062166 0.06374195 -0.00096293277 -0.022345532 0.0613261
-0.046465732 0.065394014 -0.05660599 0.048208892 -0.043501146 -0.046195496 0.004149605 0.03913882
-0.028261032 0.0038491238 0.012700037 4.9073198e-05 -0.014692759 0.036976706 -0.022422219 0.034493025
-0.0037308594 0.049552545 0.0281433 -0.012135624 0.0048834737 -0.019550811 -0.008058647 -0.042666573
0.0022599248 -0.04108109 0.006385432 -0.030756349 0.0095260395 -0.00493617 0.008097272 -0.001821228
0.050768167 -0.0052854638 -0.010572079 -0.039364837 0.004857236 0.035879575 0.047818493 -0.040304225
-0.0074174074 0.0026664892 0.005523891 -0.010957903 0.03884604 -0.048659045 -0.0060397442 -0.03380318
0.020835364 0.040959284 0.005167602 -0.032062717 0.06096749 -0.050669555 -0.038538303 0.029820133
-0.028787987 -0.012064572 0.009287971 -0.0015833549 0.037222818 0.0064804303 0.018474646 -0.05363876
-0.0002092046 0.0930116 0.017140325 -0.020672323 0.08188283 0.0656596 -0.025521105 0.055314936
-0.00010849286 0.026380943 0.012194264 -0.04551036 0.03488062 0.09101169 0.06986295 0.07472738
0.024005823 0.034610644 -0.025405735 0.07550792 -0.05572167 0.05230858 0.0607294 -0.020825852
0.070927046 0.07380306 -0.05467425 0.030474951 0.041917752 0.09094167 -0.034309205 0.02193209
0.03520949 -0.007271365 0.016951084 0.00264751 0.023757238 0.03479095 -0.0631094 0.04402198
0.08865709 -0.060492676 0.07607359 0.005226662 -0.041532073 -0.035725947 -0.017576318 0.016640801
-0.043521255 -0.059037678 0.06624555 -0.043488365 0.08737563 0.048761513 -0.01693376 0.0063441508
-0.022597848 0.011499686 -0.00039296053 -0.0636294 0.08890607 0.0062935483 0.08593479 -0.018569106
-0.023983287 -0.018808093 0.08690542 0.06196938 0.06824627 0.042763826 -0.057394568 0.021752352
0.006807754 -0.021032248 -0.07201921 0.03954469 0.032006774 0.042738244 0.016971627 0.05216686
0.030921927 0.08698845 0.047012363 0.045930088 -0.05841718 0.021841915 -0.052140668 0.0010128203
-0.028093873 0.047157947 -0.047319837 -0.06921423 -0.077983744 0.07159586 -0.056235936 -0.041923467
0.062644616 0.08007249 -0.026321732 0.060098685 -0.049415532 0.016674455 -0.03412814 0.06587722
0.07760495 -0.052396704 -0.023394821 0.023983425 0.07156796 -0.057598982 0.043798443 -0.013486661

bias f4 [32]
00000000: d090 91b9 48c4 663d 88d6 87bd ac19 0b3d
00000010: 454a 84bd fc26 07bd 1180 633c 2104 ad3d
00000020: acc2 2cbc e834 e8bc d368 46bd 6788 613d
00000030: 4a42 863d a4c6 10bb 8443 213c b28d 1c3d
00000040: 55d3 94bd 8b2b 263d 8c6e 58bd b623 b0bc
00000050: 33e2 ba3b ff37 38bd 6db9 b43b a22f 843d
00000060: 067a adbb 60df 333d 92e4 523d 277c 993d
00000070: 8ad4 6a3d dbf7 1bbd e246 353d d013 a53d
-0.0002776445 0.056339532 -0.066327155 0.03396003 -0.06459478 -0.032996163 0.013885514 0.08448053
-0.01054446 -0.02834554 -0.048439812 0.055061724 0.065556124 -0.0022091055 0.009842757 0.03822107
-0.07266871 0.04056887 -0.0528398 -0.021501403 0.0057032346 -0.044975277 0.0055152685 0.06454398
-0.0052940873 0.0439142 0.051487513 0.07494383 0.0573316 -0.03807817 0.044257052 0.080604196

weight f4 [32, 32, 3, 3]
00000000: bde4 d6ba cf16 09bd 1a15 a2bc af50 84bc
00000010: ca6e 8abc bb54 12bd 7e3d f5bc 8be5 d53c
00000020: 8f89 dbbb 9498 cb3c 2535 023d 2e3b 063d
00000030: 6183 ab3b 163f d23c 62c3 48bd df43 df3c
00000040: 22e8 66bc f077 573d 84c5 69bd 003f 543d
00000050: db35 1cbd 498d 953d 1dfc 943d 4115 4abd
00000060: 0534 21bc 0430 1f3d 1af8 91bd b2d0 a13d
00000070: de7c 05bd 2d92 1ebc 7df7 5d3d ca5e 92bc
00000080: 738f 4cbc 3e26 04bd d9ca 05bd aadc 00bd
00000090: f919 54bc 27d1 99bb ddad acbc 1b63 333d
000000a0: b8d7 493d 301d 913c 5274 2a3d f7c0 3cbd
000000b0: 196e 3dbd cb33 b53c e718 e9bc 46f4 98bc
000000c0: c8e4 40bd 7a1c 67bd 80bb 0f3d ba66 503c
000000d0: 4eac 01bd e302 72bd ba63 88bc bf0c 253b
000000e0: d990 f6b9 feb9 8dbd 7fe8 c8bc f601 67bd
000000f0: 85ad 03bd 3422 683d 9e9b ba3a 03cf b13c
00000100: 7328 c5bc f556 3e3c 3651 c83c 13d1 783d
00000110: d131 753d 26c6 50ba e67c 08bc 7095 87bc
00000120: b213 1ebc 188b 763b aee8 503b 9367 1d3c
00000130: c322 cf3c d0e8 1ebd 3ac9 243d 11d5 e83c
00000140: c86e 623d 7fe3 22bd 5029 1d3a bf25 39bd
00000150: fa98 6e3d 5dad da3c f22b c23c 82fc adbb
00000160: 71bf 153d 2342 d83b 4306 85bb f1a3 be3c
00000170: 5af8 aaba 0d35 353a d1fc e7bc 459b d33b
00000180: 437f ea3a 13db 0c3d b107 c3bb ace9 d1bc
00000190: fa7c 60bc ec6c 9ebc baae ddbc 2391 8b3d
000001a0: f77d 14bd 9fd8 793c 4393 0e3d 969d 533d
000001b0: a275 a63c 75db 5d3c 7493 50bd 2ceb 3f3c
000001c0: fc64 04bd c80d 693c fca6 083d faa2 733b
000001d0: 4a5c 113d 5827 6e3d c0b3 8139 f448 ecbc
000001e0: 8a9a 153c 1821 e03c f98a 4cbd 1c04 91bd
000001f0: befb e53c f4a2 18bd f6dc 713d b464 323d
00000200: f60f 02bd 00c6 bcbc f742 33bd f003 273d
00000210: 718c 443d 5e11 36bd 2114 8b3c 1d5b 28bd
00000220: 3037 89bd abac 393d 85ac 4e3d a2c6 0dbd
00000230: 914a 05bd 058d 123d 1abc ccbc 8e29 efbc
00000240: b7b3 8d3c cedf 183d 3ca5 3dbd 388d d13c
00000250: 9873 853d d0ba 0ebd 2b0c af3c a05c 3a3d
00000260: e78f 10bd ec50 3b3d eeb4 43bd 577d 2cbc
00000270: c88e 26bd 53b0 59bd a9ad 0e3c 39e0 4d3d
00000280: 3748 f0bb d503 ed3a e00a d7bb f406 af3c
00000290: cad6 33bc 8ea5 0f3d aa0a 973c 9e6b be3b
000002a0: c6bc 1abd a819 8b3d cdff 253c b8ee c23c
000002b0: 278e 05bc 0e87 a3bc 4408 3a3d d722 47bd
000002c0: b45c 57bb bc8e 203d e2d9 1f3c eabc 083d
000002d0: 3e07 943b 9d03 f5bc 395e 8cbb 29fd 543b
000002e0: 3b1a 333c 1dd4 46bc b93c 89bb cbda 573a
000002f0: e573 29bb c717 963d ca21 bfbc 68bc 763d
00000300: c8aa 3b3d 7d26 143d 3bda eb3c 4183 50bc
00000310: 6036 e73c 750d 2f3d 1361 413c c37e 80bd
00000320: 12b6 79bd 49bc 473c 2f0a 2cbd 3075 1bbd
00000330: b8f2 a3bb 6a00 503d e15c 04bc ad91 1f3d
00000340: b0b0 003d e225 843c 99a7 4d3d 4dfe 8e3d
00000350: f7a7 55bd b0a8 1d3d 6c0f 12bd da60 db3a
00000360: a665 9e3d d688 b3bc 64ba f6bc 6334 8cbc
00000370: c810 6f3d 4620 fb3c 2eef 8c3d 16b3 01bd
00000380: d367 3c3d acf2 1b3d 532f 513c 77f8 b8bc
00000390: e618 5f3d 8efc 833b 280b 7fbd 1ede 193a
000003a0: ce81 2c3d 3734 f13c dd0f 56bc cab9 10bc
000003b0: 8e7e 4fbd 6b55 6d3d 2a74 c5bc 895a 1b3d
000003c0: 51a2 5e3c 9088 663d cf3e 8a3c 8b28 9a3c
000003d0: c883 573d 8e5b 1f3c 58d2 f7bc 0334 633d
000003e0: 3a6a c53b fa4a 763d 3c36 dbbc f80a 633d
000003f0: e297 2a3c 3b74 f1bc f107 8e3a 6631 d0bc
-0.0016395074 -0.033469018 -0.019785453 -0.016151754 -0.016898531 -0.035725337 -0.029936548 0.026110431
-0.006699748 0.024853028 0.031788964 0.032771282 0.0052341674 0.025664847 -0.049014457 0.027254043
-0.014093431 0.052604616 -0.05707313 0.051817894 -0.038137298 0.07302339 0.07274649 -0.049336676
-0.009839063 0.03886415 -0.071274 0.079011336 -0.032589786 -0.009678406 0.0541911 -0.017867465
-0.012485373 -0.032263033 -0.032664154 -0.03146044 -0.0129456455 -0.0046941224 -0.021078998 0.043795686
0.04927799 0.017714113 0.041614838 -0.046082463 -0.046247575 0.022119423 -0.028454257 -0.018671166
-0.047093183 -0.05642364 0.035090923 0.012719804 -0.031658463 -0.059084784 -0.016649116 0.00251846
-0.00047028696 -0.06920241 -0.024524925 -0.056398354 -0.032147903 0.056673244 0.0014237051 0.021705156
-0.02406714 0.011617412 0.024452787 0.060746264 0.05986196 -0.0007964097 -0.008330559 -0.01655075
-0.00964825 0.0037619527 0.003187697 0.009607214 0.02528513 -0.038796246 0.040230967 0.02842191
0.05528143 -0.03976774 0.0005995231 -0.045202013 0.05825136 0.026693994 0.023702595 -0.0053096423
0.036559526 0.006599681 -0.0040595843 0.023271533 -0.0013043985 0.0006912507 -0.028318794 0.0064577186
0.001789071 0.034388613 -0.0059518446 -0.025624119 -0.013701672 -0.019339047 -0.027060855 0.06814792
-0.036252942 0.0152494 0.03480841 0.051663958 0.020319764 0.013541092 -0.050921872 0.011713784
-0.03232287 0.014224477 0.033362374 0.0037176 0.035488404 0.05814299 0.00024738722 -0.02884338
0.009131083 0.02735953 -0.049937222 -0.07080862 0.028074142 -0.03726478 0.059048615 0.04355307
-0.031753503 -0.023043633 -0.043765035 0.04077524 0.047985498 -0.044450156 0.016977372 -0.041102517
-0.06699979 0.045330685 0.050457496 -0.03461326 -0.032541815 0.035779018 -0.024992038 -0.02919462
0.017297609 0.03732281 -0.046300158 0.025580034 0.065161884 -0.034846127 0.021368107 0.04549849
-0.035293486 0.04573147 -0.04777997 -0.01052793 -0.04066351 -0.05314667 0.008708396 0.050262664
-0.0073328274 0.0018082807 -0.0065625757 0.02136562 -0.010976503 0.035069995 0.018437702 0.005811169
-0.037777685 0.06792003 0.010131788 0.02379547 -0.008151568 -0.01996186 0.04541804 -0.04861721
-0.0032861652 0.039198622 0.009756537 0.033383287 0.004517465 -0.02990895 -0.004283693 0.0032499528
0.010931547 -0.012135533 -0.004188147 0.0008234202 -0.0025856432 0.07328754 -0.023331542 0.060238272
0.045817167 0.036169518 0.028790584 -0.012726606 0.02822417 0.042737443 0.011802929 -0.06274178
-0.06096465 0.012190887 -0.0420019 -0.037953556 -0.0050032996 0.050781645 -0.008078785 0.038957287
0.031418502 0.016131345 0.05020866 0.06982098 -0.052162137 0.03849095 -0.03565924 0.0016737238
0.07734232 -0.021915834 -0.030118175 -0.017114824 0.058365613 0.030655038 0.068815574 -0.03166493
0.045997452 0.038073227 0.012767631 -0.022579415 0.054467104 0.0040279096 -0.0622665 0.0005869585
0.04211598 0.029443843 -0.013065306 -0.008833358 -0.0506578 0.05794279 -0.024103243 0.037928138
0.013588504 0.05628258 0.016875653 0.01881816 0.05261591 0.009726418 -0.030251667 0.055469524
0.006024626 0.060130097 -0.02675926 0.055430382 0.010412188 -0.029474368 0.0010836107 -0.02541418

bias f4 [32]
00000000: db0f 473d fe9a 0abd 7ae4 94bc f428 38bc
00000010: 206e ad3c 2e8a 833d 57c0 e1bc 4d20 763d
00000020: 5391 873d 6602 c63c 176f 8c3d eed6 0e3d
00000030: 40fa 9abc d1b3 e43c da32 c0ba f4bd e8b9
00000040: ee00 9dbb f997 683d ed6c 7f3d d064 55bc
00000050: 89f2 8a3c c4b7 eb3b 31d2 943b 306b 463a
00000060: 01df 783d 7e28 bf3b 23e4 783d 7b3d 243d
00000070: 3996 023d 6aad 3c3d 6b3c 813b dfd7 cf3c
0.048599105 -0.03383922 -0.018175352 -0.011240233 0.021170676 0.0642284 -0.027557535 0.0600894
0.06619515 0.024171066 0.06857126 0.03487294 -0.018918157 0.027917774 -0.0014663592 -0.00044392014
-0.0047913706 0.056785557 0.06235974 -0.013024524 0.016961353 0.0071935374 0.0045416583 0.0007569073
0.060759548 0.0058336845 0.060764443 0.040097695 0.031881545 0.046063818 0.00394397 0.02537149

weight f4 [120, 1568]
00000000: 098e 6bbb 8fec ebbb e092 f13b a457 37bc
00000010: c833 94bc d00c 7fbc ddef 963c e4be 773c
00000020: e51c 093c 9f43 b33c 79e3 8b3c 1dff 95bc
00000030: 4597 9e3b 374c e3b9 d271 8c3c 1902 8e3c
00000040: 187a 143d b8ab 9e3c 86d6 dabb df34 e03b
00000050: 6f9b aabb 99fe 543b b949 8f3c 91b9 da3c
00000060: b240 133c cbee 9c3b ab84 88bc 70ff 99bc
00000070: f48b 3e3c 4ce5 333c 6355 bcbc 1ff3 243c
00000080: 4c90 97bb 2b3f 083c 4308 253a e450 e63c
00000090: b0bd ba3c f87f 503c 99a5 0e3d 8d78 9b3c
000000a0: d4a3 bc3c e016 753c 0d8a 093c 7e9f f43b
000000b0: fc50 98bb c5af 9b3c 899a 953c b584 ea3c
000000c0: c050 21bc b103 88ba 21d0 1fbc d3b7 c6bb
000000d0: 7e75 bc3a 75d3 77b9 4960 60ba f655 0d3b
000000e0: eefb 503c a115 e63b e5b9 a73b c9b6 a73b
000000f0: 4fd0 09bc 2087 a8b9 a689 1b3c 34a5 893b
00000100: bb1d 86b9 f33c 9dba f23d 323c f367 3c3b
00000110: b9c2 b93a 3e24 9d3b 704c 9d3b 1a4e 793c
00000120: ab6d 33bb 659c e8ba 729e 8a3c 4f89 723c
00000130: 61a7 a43a 24d1 57bc 14bf 333b 76e9 b5bb
00000140: 5880 b3bb 7cc6 0b3b 6e17 36bc 9bcf fdbb
00000150: fb93 81bc 0494 d1ba 85b2 1b3c 3050 28b9
00000160: cc0d 5fbc 8166 bebb e816 86ba a68b 183c
00000170: 1606 4e3c 86bf 4b3b c9c5 b93c d237 7c3c
00000180: ebdf 8d3b 67f5 213b 3ae7 633b 1c0f 2f3c
00000190: 42d3 443c a16e 203c 9169 d1bc 52de 7fbc
000001a0: 2812 36bc db08 adba caa4 4b3b 624d ac3b
000001b0: dd37 89ba 94be 5abb 0254 d6bb 5639 04bb
000001c0: 194b dbbb 1d38 813c 6b44 e83c 7d3a a7bc
000001d0: 10ce dbbb 805d b43c 422d 3a3c c315 b13c
000001e0: 5f50 bf3c 024b 16bb 635f cabc 2bb7 a93b
000001f0: 1e15 fdb9 28b8 3abc dc15 f63b 0ab0 1dbc
00000200: 73da 29bc c40e 2b3b a600 4ebb e416 86ba
00000210: 4090 34bc 460b adb8 3960 9fbc 3ab3 4fbc
00000220: b9ca 86bc 87ae 953c f689 313c 5e62 33bc
00000230: 9e3d 093c e857 c93c bd08 263c 7a36 613b
00000240: 09e0 063d 35bd 873c 6bf3 9abb b792 443b
00000250: 107e 583b f43e 7a3a d060 e6bb 40ba 5fbb
00000260: 87f6 93bb 38e6 5f3c 2a66 ae3c 65a1 413c
00000270: bf45 9a3c 90b9 1a3d d5d5 5fbc 3719 563c
00000280: d198 d6b9 82fb c0bb dd1e 8dbc 5e27 9fbc
00000290: 43fd 92bc 8efb 833c db5f 393c 9135 ae3c
000002a0: 631b 883c 30f8 003c 41dd 19bc 215d 7a3b
000002b0: 53b3 fd3c 4014 993b 0713 1d3b c0f0 563c
000002c0: 5cfe 823c 38e5 173d df74 13bc d425 a9bb
000002d0: d292 903c 3c7b 9cbc d4dd 4cbc 3fa7 49bb
000002e0: ca27 d23c 979b 923c bedf 463a 623b c13c
000002f0: 1429 48ba c170 26bb 8131 473b 81ca 01bc
00000300: ff6e 29bc 75af 7bbb 150b dabb bc81 72bc
00000310: 260a fc3a e667 a1bb 63b4 86bc 364f 35bc
00000320: 7f91 47bc cd4c 44bb 1414 44bb 8c1b 5d3a
00000330: b647 7b3b 69be f63b 675e 833c a147 00bc
00000340: af24 3a3b 257e b03b e0a1 433c a8ef 10bb
00000350: 1763 b6bb 2806 48bc 8eeb 203c af71 b13a
00000360: c3d2 473c 5e80 043c b97d 82bb 0639 98b9
00000370: a2f0 27bc dc86 5b3c 8e2b 503a 4450 fd3b
00000380: 68b8 8fbb a6d5 d2bb 37f6 32bc 5cdb b13b
00000390: d170 553c 1cc3 153c 6825 d63b 2a80 4cbc
000003a0: 748f d1bb 83a8 c73b 4a94 5fbc 6fc4 89bc
000003b0: 6ed8 a9bc c388 4bbc 01f4 763c a98b 853c
000003c0: a577 c13c 1b41 e3bb b85c baba f1e5 36bc
000003d0: 679a ceba b3a7 5c3c d768 4d3c c57e cd3c
000003e0: cffc b23c fefd 113d 2f70 843c 4ed5 213c
000003f0: 6567 b4bb c53c 613a 0fa3 37ba fcf4 19bc
-0.0035942814 -0.007199831 0.007372245 -0.011190329 -0.018091097 -0.01556702 0.018424923 0.015121195
0.008368705 0.02188283 0.01707624 -0.018310124 0.00483981 -0.00043353598 0.017144118 0.017334985
0.03624925 0.019368991 -0.006678405 0.00684224 -0.0052065174 0.0032500385 0.017491208 0.026699813
0.0089875925 0.0047892085 -0.016664824 -0.01879856 0.011630047 0.010979962 -0.022989934 0.01006773
-0.004625356 0.008315842 0.00062954816 0.028114744 0.022795528 0.012725823 0.034825895 0.018978382
0.023027338 0.014959067 0.00839473 0.007465302 -0.004648326 0.019004712 0.018262165 0.028627733
-0.009845912 -0.0010377077 -0.009754212 -0.006064394 0.0014378277 -0.0002363453 -0.00085592695 0.002156613
0.012755377 0.0070216213 0.005118596 0.0051182252 -0.008411481 -0.00032144133 0.009493267 0.004200602
-0.00025580623 -0.0011996314 0.010879027 0.0028748482 0.0014172412 0.00479558 0.004800372 0.015216375
-0.00273786 -0.0017746805 0.016921256 0.014803245 0.001256209 -0.013172422 0.0027427124 -0.0055515124
-0.0054779463 0.0021328023 -0.0111139845 -0.0077456958 -0.015817633 -0.0015989547 0.009503012 -0.000160516
-0.013614129 -0.0058105593 -0.0010230215 0.0093106385 0.012574693 0.0031089499 0.02267732 0.015394168
0.0043296716 0.0024712922 0.0034775273 0.010684755 0.012013258 0.009792001 -0.025563033 -0.01561697
-0.011112727 -0.0013201492 0.0031073564 0.005258248 -0.0010468919 -0.0033377754 -0.006540776 -0.0020175776
-0.006692302 0.015773827 0.028352937 -0.020413632 -0.006707914 0.02201724 0.011363329 0.021616822
0.023353754 -0.0022932892 -0.024703687 0.005179306 -0.00048271654 -0.011396445 0.00750993 -0.0096244905
-0.010367024 0.002610133 -0.0031433492 -0.0010230211 -0.01102072 -8.251383e-05 -0.019455062 -0.012677008
-0.016454088 0.018271698 0.010836115 -0.0109487455 0.008376507 0.02457805 0.010133919 0.0034364746
0.0329285 0.016569713 -0.0047287247 0.0029994675 0.0033034123 0.0009546124 -0.007030584 -0.0034138113
-0.0045154723 0.013665728 0.02128895 0.011818265 0.018832086 0.037774622 -0.013661821 0.013067535
-0.00040931118 -0.005889357 -0.01722663 -0.019427951 -0.01794303 0.016111162 0.011314358 0.021265777
0.016614622 0.0078716725 -0.00939113 0.0038202482 0.030969298 0.0046716034 0.002396764 0.013118923
0.015990429 0.037083834 -0.009000032 -0.00516198 0.017648134 -0.019101731 -0.01250406 -0.0030769852
0.025653739 0.017896457 0.0007586441 0.023587886 -0.00076355156 -0.0025396796 0.0030394497 -0.007921816
-0.010341405 -0.003840414 -0.006654153 -0.014801439 0.0019229099 -0.0049257157 -0.016443437 -0.011066249
-0.012180685 -0.0029953003 -0.0029919194 0.0008434586 0.0038342304 0.007530023 0.016036225 -0.007829578
0.0028403213 0.0053861313 0.0119404495 -0.0022115503 -0.0055660116 -0.012208499 0.009821786 0.0013537909
0.012196246 0.008087246 -0.0039822725 -0.00029034185 -0.010250242 0.013398852 0.00079410605 0.0077305157
-0.0043859966 -0.0064341603 -0.01092296 0.005427761 0.013027386 0.009140756 0.006535221 -0.012481729
-0.006395275 0.006093086 -0.013646195 -0.0168173 -0.020733085 -0.012422743 0.0150728235 0.016301947
0.023616621 -0.0069352514 -0.0014218306 -0.011163221 -0.0015762568 0.013467717 0.012537203 0.025084862
0.021849064 0.035642616 0.016166775 0.009877516 -0.0055054897 0.0008592124 -0.00070051936 -0.009396788

bias f4 [120]
00000000: 9d20 2fbc 440b b9bb a6ca b43c b09e 373c
00000010: ccce 473a 8c54 a2bc cb89 863a 4eed 063c
00000020: 9f93 cb3c ab2f 823b 49f8 273a 0fde ba3c
00000030: 6bb3 86bc 3c3a 2fbc 2314 4f3c 1a36 653b
00000040: 78e3 1639 c843 53bc b05c 113c 2150 913c
00000050: d6e0 933c 591e 0ebb 71e3 8c3c 812f c6bb
00000060: aed9 273c b6a9 6f3b 6aca 1dbc 5b53 61bb
00000070: 0156 a6bb 8185 8ebc bc3b 253c 1d41 e53c
00000080: 8727 f0ba 42b0 7f3c 191c a2bb ea61 3239
00000090: a3ee bb3c ee96 8cbb 415e 263c 2d98 363c
000000a0: 601c 9c3b 618c fabb b83d 233c 35f4 983a
000000b0: 1bb0 373c 9c7c b63b 4578 b03a 8501 253c
000000c0: afcd 1dbc 4bfe dc3c e8de 583c 969e 09bc
000000d0: 2d20 d63c 7e31 4abc aa6d 8f3b 70ff 81bc
000000e0: 9ec2 08bc 8ae7 6f39 4fd3 d73b aeff 43bc
000000f0: 6a9c 1d3c fb3c 99bc 0eb2 3f3c 3018 c8bb
00000100: c61c 75bc ca8e be3c 1629 883c ec25 0e3d
00000110: 0dd0 9dbc c7d6 74bc 1661 1d3b 8008 8c3b
00000120: 17c4 91bc f660 763c 0ebf 873c 1c40 533c
00000130: 88db a13b faa1 9e3a 910d 483c 6296 983a
00000140: 6463 1c3b add6 a03b 77a3 073c 121b 7b3c
00000150: 4268 36bb d1c2 26bc 3050 9bbb 9f04 3dbc
00000160: 8e2c 843c de2c 913c 6738 c03c 6eaf 343c
00000170: 7c28 0ebc cd1b 97bc 366b 48bb d3ac 5ebc
00000180: 011e 913c 9c58 b03c 7a70 b4bb 2f70 6d3c
00000190: 138d 913b 82bc 043c 7691 d8bb 8088 8f3c
000001a0: c448 83bb 26c5 43bc 6b98 aebb 4885 843b
000001b0: 14e0 c13c ce9a 9e3c 77a1 7c3a 1794 813c
000001c0: ab51 d43c f16b c13a e0bd 65bc 46f2 c73c
000001d0: de71 543c a6e0 66bb 2bd6 2cbb fe69 80b9
-0.010688928 -0.005647095 0.022069287 0.011207268 0.00076220627 -0.019815706 0.0010264454 0.008235289
0.024850665 0.0039729676 0.0006407542 0.022810964 -0.016442975 -0.0106950365 0.012639078 0.0034974874
0.00014389853 -0.012894578 0.008872196 0.017738404 0.018051546 -0.002168557 0.017198296 -0.0060481434
0.01024477 0.0036569661 -0.009630779 -0.003438196 -0.0050761704 -0.017397644 0.010085043 0.02798515
-0.0018322327 0.015605988 -0.004947197 0.00017011879 0.02294094 -0.004290453 0.010154308 0.01114468
0.0047641248 -0.007646129 0.009963445 0.0011669459 0.01121142 0.005569054 0.0013463577 0.010071163
-0.009631558 0.026976725 0.013236739 -0.008399626 0.02613839 -0.012340901 0.0043770866 -0.015868872
-0.008347182 0.00022879071 0.0065864692 -0.011962814 0.009619812 -0.018705836 0.011700166 -0.006106399
-0.014960473 0.023261447 0.016621154 0.034704134 -0.019264245 -0.014943785 0.0024014167 0.004273474
-0.017793698 0.015037766 0.016570594 0.012893703 0.0049395002 0.0012102716 0.012210266 0.0011641497
0.0023862952 0.004908404 0.008278719 0.015326278 -0.0027833139 -0.010178284 -0.0047397837 -0.011536746
0.016134527 0.01772159 0.023464395 0.011028154 -0.008676644 -0.018445874 -0.003058148 -0.013591009
0.017714502 0.021526627 -0.0055065723 0.014492079 0.004441866 0.008101584 -0.006609137 0.017521143
-0.004006477 -0.011948859 -0.005328228 0.0040442087 0.02366642 0.019360926 0.0009637097 0.015817685
0.025917849 0.00147569 -0.0140223205 0.024407517 0.012966601 -0.0035229116 -0.0026372771 -0.00024493033

weight f4 [84, 120]
00000000: 42db efbc 255b 82bc 4be9 88bd 4307 32bd
00000010: a666 1f3d 1659 163b 9cb8 663d 3726 e13d
00000020: b091 563d 2b17 46bd b6a2 87bd 8d00 193d
00000030: 3b93 7e3d 9d27 5fbd d7df 9d3d 298e d43c
00000040: a0fe 9abc a31c 963d 80ee 2c3d 19c8 76bd
00000050: 5b95 53bd 43d6 273d c08d 8239 a59d 783d
00000060: a26a b73d ef97 1cbd 9ad8 1f3c 1835 30bb
00000070: 098c 78bd 16d2 a13d d9e8 1f3d f326 80bb
00000080: a889 b93c dd7e b1bc 0b18 183d a521 db3d
00000090: 68b4 793d ca30 a4bd 3a77 b43a fcb3 c63d
000000a0: d90e 773d 9412 a1bd c875 6cbb 4e65 c8b8
000000b0: d9cd 3abd e510 b03d 5058 c6bc bda8 da3d
000000c0: 3baa 50bd a868 423c 62ea 0ebb 232b 33bd
000000d0: 50d0 77bd 824a 033d 2a04 c13c 626f 8c3c
000000e0: a333 62bc 37e0 e5ba eea4 7d3b ef38 18bd
000000f0: 96b7 b63d 303a 553d 5fdc 95bd afd5 0abc
00000100: db26 ce3c 5452 82bc 2466 9f3c 9875 94bd
00000110: e109 88bd 2e2a 183d 91a7 50bd b793 53bd
00000120: 1654 1eba f222 a539 56b2 63bd ae19 0e3d
00000130: 3d81 a53a a87a 74bd e898 0d3d aa50 24bc
00000140: 021b 7fbd 3355 4f3c c648 81bd 8720 4ebd
00000150: 59d5 ffba 0429 3ebd 9453 91bc 126d 103d
00000160: 7727 8f3d b2d5 a93c 2c7d 863d 28f4 3e3d
00000170: b55f 843d 0115 273b 1c08 45bc 7c8c 083d
00000180: f4a5 3e3d 300e 173d 249f 843d 2540 03bc
00000190: 3b6d 903c 40bb 58bd 9ef4 26bd 08e7 1d39
000001a0: 339b 93bd f752 13bd c4f1 293c efc6 bf3d
000001b0: 3c4f 823d 03d1 563d 50f4 a5bc 81cb cebc
000001c0: f0ca b3bd f57b 89bb 02d5 9b39 7c10 58bd
000001d0: 5c5c e03b 8b76 863d 8af7 27bc 4601 20bd
000001e0: cb22 8e3d 634e 463b 4e3e 663a e5d3 243c
000001f0: a18b 49bd ea14 843d 2445 293d ab6a 963d
00000200: 31ca 293d 896d 93ba 7309 8d3d 4f36 4b3c
00000210: a838 53bd 99c5 7e3c d58e 583d 8c2e 5f3c
00000220: 0fd8 bb3c ca95 18bc 3bc2 603a ff50 74bd
00000230: 89a6 84bc cbeb fbbc 6883 673d 749f 93bd
00000240: 389e 0abd fb7a 4b3d a6cb 1cbd 1762 c739
00000250: 040a 3cbd 8d44 973c 24c0 cd3c 8b42 bdbd
00000260: 000e c2bc 2bf1 0bbd 4af1 9a3d c895 013d
00000270: f2df a0bd e419 723c 4bbb 4039 b8ec 65bd
00000280: d35a 173b c378 07bd a776 833d 8acf 7dbc
00000290: 72a5 923d f259 a03d 47cf 043b 08c9 02bc
000002a0: af2c 233d 310f 00bc de39 b4bc 036e 8d3a
000002b0: c1f8 673d 3f65 22bd 8d9b e03c 477b 3ebd
000002c0: f1ed 23bd 09ee 6a39 ca1b c2bc 9830 acbd
000002d0: 873d 423d 57cd b73c 9811 8fbd 972e 0d3b
000002e0: fc84 5f3d e5d2 243b 331a 20bc 18df eabc
000002f0: 6877 a13d 1f86 3d3c c0b6 8a3b afdd 543c
00000300: 3603 933c fd9e bc3a 3646 5c3d 9230 bdbd
00000310: 41c3 513d 3148 00bb f2c2 c93d 1e7a 3b3d
00000320: fa0e 88bd 3b81 b33c 5e82 74bd 6379 0739
00000330: fceb 3f3a ac33 01bc 3dd8 ea39 8272 453b
00000340: d964 a83d 80d1 7dbd 095c 623c ae46 68bd
00000350: 0384 a63c f069 08bd 5986 463d 1526 9aba
00000360: e9ce 9ebc 515d 50bb 93dd ef3c 4935 c43d
00000370: ee49 febc 7b54 5cbd 5e95 52bd 7cc1 82bc
00000380: 9882 823d 7657 283d 5b0c a4bc f005 753d
00000390: 7259 6cbc f4c4 8e3d e754 f83c 6cdc 4abd
000003a0: 23c3 3dbd c6ec 87ba 4739 ddb8 e732 2f3d
000003b0: da40 0cbd 9329 e2b8 0e2f 84b9 bd76 353d
000003c0: 3497 013c 72f1 a238 2341 753d bae0 faba
000003d0: e12e 8ebb d9c2 4e3d 0514 27bd 7061 d53d
000003e0: b6b5 ba3c ce2a e13c 0dba 91bd 7869 793d
000003f0: 20aa 043d 178e 08bc ea4e da3c 516e 863d
-0.029279355 -0.015912602 -0.06685122 -0.043463957 0.038916253 0.0022941283 0.0563284 0.10993617
0.052385032 -0.04836194 -0.066228315 0.03735404 0.06215213 -0.054481138 0.0770871 0.025946693
-0.018920243 0.07329681 0.04221964 -0.06024942 -0.05165611 0.04097582 0.00024901144 0.060697217
0.089558855 -0.038230833 0.009756232 -0.0026887115 -0.060680423 0.07901399 0.03904042 -0.003910893
0.022648647 -0.021666938 0.037132304 0.106997766 0.060963064 -0.08017118 0.0013768442 0.09702298
0.060316894 -0.078648716 -0.0036080945 -9.5556126e-05 -0.045606468 0.085969724 -0.024212033 0.106767155
-0.050943594 0.011865772 -0.0021807184 -0.04374231 -0.060501397 0.032053478 0.023561556 0.017142955
-0.013806256 -0.0017538135 0.0038703042 -0.03716367 0.08921735 0.052057445 -0.07317423 -0.008473798
0.025165012 -0.015908398 0.019457884 -0.07248992 -0.06642509 0.0371496 -0.050941054 -0.051654544
-0.00060397515 0.0003149729 -0.055589996 0.03469246 0.0012627017 -0.059687287 0.03456965 -0.010028997
-0.062281616 0.01265459 -0.063127086 -0.05032399 -0.0019518539 -0.046425834 -0.017740048 0.035260268
0.06989949 0.02073178 0.065668434 0.046619564 0.06463567 0.0025494697 -0.012025859 0.0333371
0.046544984 0.036878765 0.06475666 -0.008010899 0.01763021 -0.05291295 -0.04076063 0.00015058753
-0.07207336 -0.035967793 0.010372583 0.093641154 0.06362769 0.052445423 -0.020258099 -0.025243523
-0.08778942 -0.004195685 0.00029722607 -0.052750096 0.0068469476 0.06565579 -0.010251889 -0.039063714
0.0694023 0.0030259124 0.0008783088 0.010060285 -0.049205426 0.064493015 0.041325703 0.07344564
0.04145259 -0.0011247854 0.06886568 0.012403085 -0.051567703 0.015550041 0.05287059 0.0136219375
0.022930173 -0.009313056 0.00085738645 -0.059647556 -0.016192691 -0.030752083 0.056521803 -0.07208148
-0.033842295 0.04967783 -0.03828015 0.0003802932 -0.04590799 0.018465305 0.025116034 -0.09241208
-0.023688316 -0.034165543 0.075655535 0.031636983 -0.07855214 0.014776681 0.00018380319 -0.056133956
0.0023094907 -0.03307415 0.064191155 -0.015491376 0.071604624 0.07829656 0.0020265148 -0.0079825
0.039837535 -0.007816122 -0.02200025 0.0010790232 0.056633715 -0.039647337 0.027417922 -0.046504285
-0.04002184 0.00022404654 -0.023694891 -0.08407706 0.04742196 0.02243678 -0.069857776 0.0021542662
0.054570183 0.0025150117 -0.009771871 -0.028670833 0.07884103 0.0115676215 0.0042332113 0.012992307
0.017945867 0.0014390644 0.053777896 -0.0923778 0.0512116 -0.001957428 0.09851636 0.045770757
-0.066434816 0.021912208 -0.05969464 0.00012919823 0.0007321236 -0.007885855 0.00044793068 0.0030128066
0.0822236 -0.061967373 0.013815888 -0.05670803 0.02032662 -0.033304155 0.048467968 -0.0011760617
-0.019385772 -0.0031793902 0.02928046 0.09580476 -0.031041112 -0.053791504 -0.05141198 -0.015961401
0.06372565 0.041099034 -0.020025423 0.059820116 -0.014425622 0.069711596 0.030313922 -0.049526617
-0.046328675 -0.0010370247 -0.0001054877 0.042773154 -0.034241535 -0.000107842636 -0.0002521206 0.04430269
0.007909585 7.769735e-05 0.059876572 -0.001914046 -0.0043390845 0.05047879 -0.040790576 0.10418975
0.022791725 0.027486231 -0.071155645 0.0608916 0.032388806 -0.008334658 0.026648957 0.0656401

bias f4 [84]
00000000: 3be2 fa3c 6552 2f3d 0bcf 8b3c 4743 4bbd
00000010: 85ac 263d 780b 39bd 312b 153d e35c a7bc
00000020: e58a 71bc fbda ae3c 050d 973c f048 c0bb
00000030: a9ae 6d3d d8f8 babc 3b17 81bd 4b74 b5bc
00000040: fc6e f43c 6019 91bc b14e 3c3d 04df ca3d
00000050: cecf c93c dffa 90b8 e27b 0a3c b894 1dbd
00000060: 4feb 14bc be4b 08bd 4e94 90bd c7c1 153d
00000070: ad98 dfba 63e0 883c 6ff7 66bd 7923 7abd
00000080: ff4c b53c 736b d9bc 9ac1 e43b 9ed2 97bd
00000090: 1145 d43c 471a b43c 3a33 bebc d3e3 313d
000000a0: 7256 0a3d fb9d 493d c0ab 3bbd 71f9 27bd
000000b0: a1e6 5d3d 646f 5a3d b777 69bd fdd4 ac3d
000000c0: 9fb6 e2bc 78d4 6cbd 7156 bb3d 5341 5ebd
000000d0: 27c9 7abd bbd0 bcbd 5e05 a43d 9657 0a3d
000000e0: 049f 483d c26b 2dbc 31bc 5c3d a03f 97bc
000000f0: 728b 363d 2ab2 fe3b b5aa 513c 0218 9cbd
00000100: d259 943d d732 813d 9aa0 823d 1294 953d
00000110: caa1 d33d 715d 65bd ba93 a0bc caf1 80bd
00000120: de1f 9ebd 7314 babd 6d8d 773d 25fe f2bc
00000130: 8626 313c 27f9 f43c 9c1c 05bd 715a 593d
00000140: f0a5 b03d 6f25 663d 7f51 1c3c e672 8bbb
0.030625453 0.042803187 0.0170665 -0.049624708 0.04069187 -0.045176953 0.036418144 -0.020430034
-0.014742588 0.021344652 0.018438825 -0.00586807 0.058027897 -0.022823736 -0.06303259 -0.02215018
0.029838078 -0.017712295 0.045973483 0.09905818 0.024635222 -6.9131835e-05 0.0084523875 -0.038471907
-0.009089305 -0.03327536 -0.07059537 0.036561754 -0.0017059051 0.016708558 -0.056388315 -0.061068986
0.022131441 -0.026540494 0.006981087 -0.07413219 0.02591184 0.021985186 -0.023217786 0.04343016
0.033773847 0.049222928 -0.04581809 -0.04100937 0.054175023 0.053328887 -0.056998935 0.08439062
-0.027674971 -0.057819813 0.09147347 -0.054261517 -0.06122699 -0.092195 0.08008836 0.033774935
0.048979774 -0.0105847735 0.05389041 -0.018462956 0.04456658 0.0077727037 0.012797047 -0.076217666
0.07243694 0.06308525 0.063782886 0.07303633 0.10333593 -0.055997316 -0.019601692 -0.062961176
-0.07720922 -0.09085932 0.06043761 -0.029662201 0.010812407 0.029903961 -0.032497987 0.053064767
0.086254 0.056188043 0.009540915 -0.0042556403

weight f4 [10, 84]
00000000: 8ecc 853b 3a0f ad3d dc91 cdbd 9f92 09bd
00000010: 1ec6 c43d fd3e a2bd 38d3 71bd 9de8 363b
00000020: b803 c8bc adae 58bd 7d34 0b3d a556 a2bd
00000030: 9f87 1a3d 2d91 ee3c cf19 2d3d 956e 35bd
00000040: ba6c d03d 4272 683d 9a56 dcbd caf2 51bd
00000050: efdc a1bd 584a 983d d31a f43d c000 ebbd
00000060: 162f 913b 8e18 d13b 162c af3d e6bf c53d
00000070: 9540 ea3d ab9a 713d 08fe e3bb 92a2 45bc
00000080: 1a10 eebd bff1 893d a654 02be f923 833d
00000090: 5d50 643d 7b53 cf3d 0922 8bbd 7eeb 453d
000000a0: 423a 8abd 8f21 b83d 65e5 4abd 5e8b 8dbc
000000b0: 3b0d 22bd 6b6d 40bd e827 303d 0079 b03c
000000c0: 8dbd 48bd 37b2 443d 0172 3f3d 8f4f f0bc
000000d0: e615 8dbd a5dc 98bd 4e6a e4bc d81c 433d
000000e0: 188a ba3d d82c bc3d bc1c bebc 1c54 353d
000000f0: 6c43 b2bd ce46 163d c709 f23c 00fb 3fbc
00000100: 3d00 7fbd f2e9 943d fb4d f3bd 5409 efbc
00000110: 85b2 e83c 7e65 523d 6cdc 303b 86ff 003d
00000120: d8ed 4abc 116a d73d fe5f 6b3c d537 25bd
00000130: df83 eebd 7df5 91bd fafd 78bd bdcb d4bd
00000140: 474c 3f3d 991d e8bd 9eac abbd 5afa d23d
00000150: 62b3 fbbc 09ff 94bd 8e96 77bd 0fc0 98bd
00000160: d5eb 163d 99cb e9bb 4b4c ae3d 088b 02bc
00000170: fb17 583d 0d0a 243c f6c7 81bd 5340 1a3d
00000180: 70cd dc3d df58 b6bd 5ca0 01b9 c0b4 ccbd
00000190: eabc b03d 068b 23bc 4d5b 893d 070e be3d
000001a0: 04fd 87bd 9d43 06ba 73bf 64bc dce8 59bd
000001b0: 3f04 e3bd 12fb adbd f547 03bc aec0 e6bb
000001c0: 3187 2dbd bf97 abbd c3dc 06bc 65de cabd
000001d0: 330e 93bd 90dd 103d a6db d03d 74ee 383d
000001e0: b2f5 60bc 0aae babd 6760 01bd cd21 da3d
000001f0: 1c0c 8abd f1cc 2d3d faa8 b23d 00a0 9e3d
00000200: 778a 7bbd fab5 29bd cb35 623d 8e43 98bd
00000210: e6e6 86b8 51ec 043d 7132 023e b4a5 2bbd
00000220: d201 22bd 9b59 af3b c594 b8bd 7b7e 173d
00000230: 5f0b 993d 623b a4bb 3275 42bd 3e66 f7bd
00000240: 89e0 c93d 8853 913d dc8a 48bd f289 35bd
00000250: 9d3d 843d f07b db3d 866c ee3d 3caa b8bd
00000260: 2473 ec3c 63f4 013a 8252 18bc 83e7 f3ba
00000270: 50d0 a8bd e029 a63d edf8 b83d ce7a a3bd
00000280: 88ab 8d3d 1df3 6fbd a8ad 9e3d 3c0b 8d3d
00000290: f369 87bd bbae 50bb 95b7 223d f751 c3bd
000002a0: d393 d13c 7ce9 61bd d2e6 90bd 7426 87bd
000002b0: d2fa a9bd 3d96 b0bd deef 5e3d 4afe ac3b
000002c0: 7688 0bbd 6db3 03bd d8fd 25bd 445b 92bd
000002d0: 3fc2 abbd 0223 46bd ae0b 4dbd 7006 8a3c
000002e0: af27 bf3d 5410 91bd 2678 bcbd 753e d53c
000002f0: b37d 08b8 d17a d73c e3da 973c 5bd3 41bb
00000300: f347 813c fcf0 1abd 3142 a83d 8d89 063d
00000310: de0d dbbc 568e 4cbd c876 abbd a870 68bc
00000320: ec5e d33d d3bb 263c ab22 363d de66 6b3d
00000330: 9358 6f3d 35bf aa3d c325 d5bc aae0 b2bd
00000340: 52be c0bc 5f45 903c d6d1 b63c 72e8 b2bd
00000350: 821b a83d 064f 8cbc 42f4 b13c 0a28 f4bd
00000360: 83fd 9f3c 74e1 f13d b67d 01be e525 a0bd
00000370: 432f 3b3d 6544 b2bd f9a2 ed3c cb43 c2bd
00000380: d9af d6bd 6da0 9d3d 0c43 0f3d ee54 27bd
00000390: 8a2c af3d 23cf c83c e4f2 7c3d d446 2abd
000003a0: f8f7 a2bd 78d0 f2bd b69a d23c 89eb ccbd
000003b0: 09ae b43d c0e2 d7bc c4a6 e23b eedf efbc
000003c0: dc32 eb3b 3d28 30bd 0c2c bcbd c397 a9bd
000003d0: 209c d6bd a99e 3e3d ad1f b23d 47d1 bf3d
000003e0: a347 50bd e1e2 8abd b9c9 e8bd 495e 2bbc
000003f0: 474f afbc 179f b63d 5f8d e1bd d8d8 573d
0.0040832227 0.0845017 -0.10037586 -0.033587094 0.096081 -0.0792217 -0.059039325 0.0027909644
-0.024415836 -0.05290096 0.033985604 -0.079266824 0.037726995 0.02912196 0.04226094 -0.044294912
0.10176988 0.05674959 -0.107587054 -0.051256932 -0.07903468 0.07436055 0.11919179 -0.114747524
0.004430662 0.006381101 0.085533306 0.09655742 0.11438099 0.058985393 -0.006957773 -0.012062686
-0.11624165 0.067355625 -0.12727603 0.064033456 0.055740703 0.101233445 -0.06793601 0.048320286
-0.06749393 0.08990776 -0.049535174 -0.01727837 -0.0395634 -0.04697935 0.043006808 0.021542072
-0.049008895 0.04802152 0.046739582 -0.029334811 -0.068889424 -0.074639596 -0.027882721 0.04763493
0.091083705 0.09188241 -0.023207061 0.044269666 -0.08704266 0.03668862 0.029545678 -0.011717558
-0.062256087 0.07271184 -0.11880108 -0.029179253 0.028405437 0.05136632 0.002698685 0.031493686
-0.012385808 0.105182774 0.014366148 -0.04033645 -0.11646246 -0.07126901 -0.060789086 -0.103904225
0.046703603 -0.1133377 -0.083825335 0.10301657 -0.030725185 -0.072752066 -0.060446315 -0.07458507
0.036846 -0.0071348664 0.085106455 -0.007967718 0.052757245 0.010012162 -0.06336968 0.037659
0.107813716 -0.089036696 -0.00012362137 -0.09995413 0.086297825 -0.009981876 0.06706867 0.09280019
-0.06640056 -0.00051217695 -0.013961661 -0.053200588 -0.11084794 -0.084951535 -0.008012761 -0.007042012
-0.042365257 -0.08378553 -0.008231345 -0.099057 -0.07180443 0.03536755 0.101981446 0.04514928
-0.013730453 -0.091152266 -0.031586077 0.10650978 -0.06740591 0.042431775 0.08723636 0.07745361
-0.061411347 -0.041433312 0.055227082 -0.0743476 -6.432626e-05 0.03245193 0.12714554 -0.041906074
-0.039552517 0.005351258 -0.090127505 0.036985856 0.07472872 -0.005011962 -0.047475047 -0.12080048
0.0985728 0.070960104 -0.04896055 -0.044321008 0.06457064 0.107169986 0.11641793 -0.09016845
0.028863497 0.0004957376 -0.009297015 -0.0018608425 -0.082428575 0.08113456 0.09031854 -0.079824075
0.069174826 -0.05858146 0.07747966 0.068869084 -0.06612005 -0.0031842429 0.03972586 -0.09537118
0.025583183 -0.05515431 -0.070752755 -0.06599131 -0.08299793 -0.08622406 0.054427974 0.005279337
-0.034065686 -0.032153536 -0.040525287 -0.07146314 -0.08386659 -0.04837323 -0.050059967 0.016848773
0.09333741 -0.070831925 -0.09202604 0.026030758 -3.2541993e-05 0.02630368 0.01853699 -0.002957544
0.015781378 -0.037827477 0.0821575 0.032846022 -0.02674001 -0.04994043 -0.08372265 -0.014187016
0.10320839 0.010176617 0.044466656 0.05747115 0.05843408 0.08337251 -0.026018983 -0.087342575
-0.023528252 0.017611204 0.022316854 -0.08735742 0.08208372 -0.017127525 0.021722917 -0.11921699
0.019530063 0.1181058 -0.12645611 -0.07819728 0.04569937 -0.087044515 0.029008375 -0.09485587
-0.10482759 0.076966144 0.03497605 -0.04085248 0.08553417 0.024512833 0.061755076 -0.041571453
-0.079574525 -0.118561685 0.025708538 -0.10005862 0.08822257 -0.02635324 0.0069168527 -0.029281583
0.007177694 -0.043007124 -0.09188089 -0.082808994 -0.10478997 0.04653803 0.08697448 0.09366088
-0.050849568 -0.06781555 -0.113666005 -0.010459491 -0.021400107 0.08917063 -0.110132925 0.052697033

bias f4 [10]
00000000: 7ee0 573d b767 9cbd 7b02 b33d f07f 8c3d
00000010: 51e9 9dbd aceb 913d 0c00 943d 41c7 7abd
00000020: fe61 14bd c9e1 883c
0.052704327 -0.076369695 0.087407075 0.0686034 -0.07710517 0.07125029 0.072265714 -0.06122518
-0.036226265 0.016709225
